data.pth (torch, 13738 bytes, 6 tensors)

l1.weight f4 [8, 235]
000000 ef f3 93 3e 87 53 10 3f 9e 8e 80 3e 79 87 3c be
       0.28897044 0.5637745 0.25108808 -0.18411054
000010 15 41 aa 3e 0c 6d 5b 3f d1 fb 2e 3e 9a 81 25 bc
       0.3325278 0.8571327 0.17088248 -0.0101017
000020 41 12 d8 3e 94 67 94 be 25 6c 66 3e b1 5f 22 3f
       0.42201427 -0.28985274 0.22502191 0.63427263
000030 ec 9e f3 be f5 90 0e 3f f2 6d 56 be c7 44 c4 be
       -0.47582185 0.55689937 -0.20940378 -0.38333723
000040 0e 73 c6 bd c3 bf 67 bd 0e 1d 35 be af 7f 0e 3f
       -0.09689914 -0.056579363 -0.17686865 0.5566358
000050 17 53 36 3e c7 c6 9d 3e 9b c7 fe be 0a d1 b0 be
       0.17805134 0.30815718 -0.49761662 -0.34534484
000060 12 65 82 bd b0 cd ae bd f4 22 29 bc 1b 60 de be
       -0.06366934 -0.085353255 -0.010323275 -0.43432698
000070 99 47 e9 3e 2b c7 2c 3e d5 ea ff 3e 95 81 d9 3e
       0.45562437 0.16872852 0.4998385 0.42481676
000080 4c 5b a4 be 99 38 5b 3e b9 9a a0 3e 4c 6b b4 be
       -0.32100904 0.21408309 0.31368044 -0.3523811
000090 f2 73 d5 3e 52 59 f6 3e cd 44 36 be a2 fa 0b bf
       0.41690022 0.4811502 -0.17799683 -0.5467931
0000a0 ed 20 06 3f b9 07 83 3e bc 43 59 3e bf 1a 28 3f
       0.5239399 0.2559183 0.21217245 0.6566581
0000b0 0b c5 82 3e 60 e4 0d bf db d8 c0 be 07 62 ac 3e
       0.25540957 -0.554266 -0.37665448 0.3366854
0000c0 b1 da 04 3e 17 f2 ee be e7 15 e3 3e c6 52 7c bd
       0.12974049 -0.46669075 0.44352648 -0.061602376
0000d0 e2 e7 60 bc fa 98 9d be d4 8d a9 3c 7e 51 aa be
       -0.01372716 -0.30780774 0.020697512 -0.332653
0000e0 92 d2 37 3f 21 23 99 3e 17 f1 d7 be f6 5c 20 3e
       0.7180568 0.29909614 -0.42176124 0.15660462
0000f0 62 cd 60 3e 9c 00 c6 3e bd 39 dc be b7 ca f0 3e
       0.21953347 0.3867234 -0.430128 0.4702966
000100 49 e0 c6 be 29 a7 a9 3e b7 9f d1 bd 3a 67 6a 3e
       -0.3884299 0.33135346 -0.10235541 0.2289094
000110 a3 b3 8e 3e f6 8d 0a bf f7 d4 80 3e 88 bf 03 3e
       0.27871427 -0.54122865 0.2516248 0.12866032
000120 cf 19 60 3e 3d d7 9c 3e ff 99 04 3f ee d9 d8 3e
       0.21884845 0.30632964 0.5179748 0.42353767
000130 7b bf 71 be f2 d6 7a 3f b3 e2 9a 3e ab f1 9d be
       -0.236082 0.9798423 0.30251083 -0.3084844
000140 e0 e9 4a be 23 17 c5 be 29 35 77 3f 07 bb 25 bf
       -0.19815779 -0.38494214 0.9656549 -0.64738506
000150 5d e8 f2 be 6d 5c 78 3f d8 78 6f 3f 7f c0 49 3e
       -0.47442904 0.9701603 0.9354377 0.19702338
000160 31 82 88 3e a3 1d 13 3e ca b1 bc be d6 8c 7f 3e
       0.26661828 0.14366774 -0.36854392 0.24956068
000170 48 a2 6f 3f f9 5d d0 be a4 6a 40 be a6 fb ab bd
       0.93606997 -0.40696695 -0.1879068 -0.083976075
000180 4c 05 fa be 45 d5 1e be d7 27 5c 3e 9f 1d a6 be
       -0.48832166 -0.15511043 0.21499573 -0.32444474
000190 86 c5 8a 3e e4 0c 02 be 33 d8 c0 be ad b4 3f bf
       0.27103823 -0.1270023 -0.37664947 -0.74885064
0001a0 16 98 5c bf 43 f5 00 bf b2 a7 29 be 69 ce 6f 3e
       -0.86169565 -0.5037424 -0.16567877 0.23418583
0001b0 3a c2 0f 3f 16 91 fd 3e 3d 43 4a bf b8 e7 89 3e
       0.5615574 0.49524754 -0.7900885 0.269346
0001c0 3c b1 7a 3e e9 7a 2b bc c4 87 ad be d8 18 84 be
       0.24481672 -0.010466316 -0.33892643 -0.25800204
0001d0 7c fc 27 bd e9 8c cd be 7d b8 ca 3e 9d 4b 9b 3e
       -0.041012272 -0.40146568 0.39593878 0.30331126
0001e0 43 b7 95 3e fa df 08 3f be cb 92 3e 4d e1 48 be
       0.2924138 0.5346676 0.28671068 -0.19617195
0001f0 36 87 38 3c 40 bf dc be 68 92 d1 3e 97 10 f3 bc
       0.011262706 -0.43114662 0.40932012 -0.029670997
000200 23 45 25 3f 27 8d 11 3f d9 eb c8 be 63 be 90 3e
       0.6455862 0.56856006 -0.39242437 0.28270254
000210 3e 02 68 be 6c 95 b8 be d2 6f 9f 3e 97 ad 92 3e
       -0.22657105 -0.360515 0.3114 0.28648064
000220 ff 8d 92 3e 2a 48 81 3e 4d bd 20 3e dc 7e 98 3e
       0.2862396 0.2525037 0.15697213 0.29784286
000230 78 da 81 be ae 14 46 bf 8d 69 8d bd e3 52 df 3e
       -0.2536199 -0.77375305 -0.06904898 0.43617925
000240 48 c6 f9 3e 4f 31 be 3e b2 ff 78 3e 00 9c ab 3e
       0.4878409 0.37146994 0.2431629 0.33517456
000250 f8 aa 2b be 22 5e 4c 3e 1f 99 f4 3e 2b dd fa 3e
       -0.16764438 0.19957784 0.47773072 0.48996863
000260 da 97 fa 3e bf e3 04 3f 91 88 b2 3e e6 e8 80 3e
       0.4894398 0.5191001 0.34869817 0.25177687
000270 ce 17 2a 3e de fe 26 bc c8 c1 22 be a3 00 96 be
       0.16610643 -0.010192601 -0.15894234 -0.2929736
000280 3a 89 94 3e 1a ad d6 bd e4 9c e8 3e 26 73 21 3f
       0.29010946 -0.10482235 0.45432198 0.6306633
000290 ec 2e 5c be 18 97 a7 be 15 51 8b be f5 d9 94 3e
       -0.21502274 -0.32732463 -0.27210298 0.29072538
0002a0 3b 5f 37 3e 47 c2 10 3f 59 09 9c 3e 83 fb 1e 3e
       0.17907421 0.56546444 0.30475882 0.15525632
0002b0 a5 5f 8c 3e 50 4d 2c 3e 07 d1 cf 3e 88 60 2e bf
       0.2741672 0.16826367 0.40589163 -0.68116045
0002c0 6f 77 28 bf 11 96 bd be 1c e5 4c 3c 59 0c b6 bd
       -0.6580724 -0.37028554 0.012505796 -0.08889074
0002d0 04 b0 96 be 39 df 98 be 76 af ac 3d f6 7b 62 3e
       -0.29431164 -0.29857805 0.08431904 0.221176
0002e0 67 33 b0 be 51 90 02 bf cd 1b a6 3e df bc 1e 3f
       -0.34414217 -0.5100146 0.32443085 0.62006944
0002f0 1f cc 68 3e 63 cb c7 bd 27 f7 9e be ac c2 de be
       0.22734116 -0.0975559 -0.31047937 -0.43507898
000300 68 c0 a6 be de a6 68 be ac 98 fd 3e d9 a1 b4 bd
       -0.3256867 -0.22719905 0.49530542 -0.088199325
000310 1b 4d af 3e 4f 54 0f be 21 7c 3e 3e 75 81 66 bf
       0.34238514 -0.13997005 0.18602039 -0.90041286
000320 01 fa 13 bf d8 55 07 3f ac e1 a5 3e 7e cd 80 3e
       -0.5780335 0.5286536 0.32398736 0.25156778
000330 35 2d 1e 3d 00 68 c9 3e d5 50 d6 be d0 e3 81 be
       0.03861733 0.39337158 -0.41858545 -0.2536912
000340 26 41 6f 3e 73 39 07 3e f1 2b 40 3e 00 9f 90 3e
       0.23364696 0.13205509 0.18766762 0.28246307
000350 1e ea 17 3f f2 f4 b9 bd 91 bc 5b 3f 01 f0 8c 3e
       0.5934161 -0.09079923 0.85834605 0.27526858
000360 0d 4a 9c 3e 96 ad 98 3c 2a da e9 3e d0 d6 d5 3e
       0.30525246 0.01863746 0.45674258 0.4176545
000370 c3 fa a1 be 02 c3 2a be 6a ad c0 bd a2 55 a0 be
       -0.31636629 -0.16675952 -0.09408076 -0.31315333
000380 da a6 d1 bd 41 94 b1 bd ad bf 02 3f b8 16 5a be
       -0.102369025 -0.08670855 0.51073724 -0.21297729
000390 a1 b3 62 3e 2a 5a d0 3e 53 f8 97 3e db 48 1b 3d
       0.22138835 0.4069379 0.29681644 0.037911277
0003a0 29 de 78 3f 64 3b 64 3e 1c 8a 94 be bc c8 8d 3e
       0.9721399 0.2228828 -0.2901162 0.2769221
0003b0 32 20 4f 3d f9 ef 94 3c a1 5e e0 3e 4a 23 04 bf
       0.050567813 0.018180834 0.43822196 -0.51616347
0003c0 83 29 d5 be 26 7c da bc ee da 9e bd 13 78 20 be
       -0.41633233 -0.026670527 -0.07756601 -0.15670805
0003d0 08 cc 13 3f cb ad b8 be 2a bf f9 3e 4c 28 48 3f
       0.577332 -0.36070094 0.4877866 0.7818649
0003e0 f2 5c 24 3e 5a a4 ab bd 77 2b 7a 3e 57 da c0 be
       0.16051081 -0.08380957 0.24430643 -0.3766658
0003f0 4e bf 0a be ab 91 b0 be 5a bb f0 be e0 18 4a be
       -0.1354954 -0.34486136 -0.47017938 -0.19736052

l1.bias f4 [8]
000000 aa 94 b1 3f 0a 76 b6 3f a0 4e 51 3f 60 8c 1d 3f
       1.3873494 1.4254773 0.817606 0.6154232
000010 c5 af 39 3f 15 b8 4d 3f 99 5e b5 3e 2f 91 3e 3f
       0.7253383 0.8035901 0.35423735 0.7444028

l2.weight f4 [8, 8]
000000 7e 02 99 be 9d 14 79 be ee bd f7 bd 67 ac 91 be
       -0.29884714 -0.2432427 -0.12096773 -0.28451845
000010 e0 9e 3d 3c 62 b9 72 be b9 ba 9f 3e fe f2 2c 3e
       0.011573523 -0.2370353 0.31197146 0.16889569
000020 5f 38 cc 3f f5 0f a9 3f f5 80 6a 3f dd 44 dd be
       1.5954703 1.3207995 0.9160302 -0.432166
000030 d8 bd 91 bf 2e 3a 9d bf bf d1 3a 3e 08 06 b4 3f
       -1.1386061 -1.228338 0.18244074 1.406434
000040 b9 86 6e 3f 48 f4 19 3f 44 a3 88 bf 5f bf c4 be
       0.9317432 0.6013837 -1.0674825 -0.38427255
000050 74 0e ff 3f e0 d4 e2 3f 12 39 65 bf 20 f5 91 3f
       1.9926286 1.7721214 -0.8954021 1.1402931
000060 6b 42 ed 3f c9 17 8e 3f 23 7d 05 bf 56 f7 fb 3e
       1.8535894 1.1101009 -0.5214407 0.4921214
000070 d3 8d 9d bd d5 49 1a bf a7 fd 32 3e 9a e8 24 bf
       -0.076930664 -0.6026891 0.17479573 -0.6441742
000080 ff 21 43 bf 38 c1 0c 40 f0 2d 66 3f 5b 80 3f bf
       -0.7622375 2.1992931 0.89913845 -0.7480523
000090 98 49 d3 3f 5a ab 58 3f ea a3 be bf ed bb c0 3e
       1.6506834 0.8463646 -1.4893773 0.37643376
0000a0 49 a8 c0 3f cb 74 ba bf cc f8 be 3f 82 cc cd 3f
       1.5051357 -1.4566892 1.4919677 1.6078036
0000b0 73 3a e3 3e 08 4e ad 3f 37 8a cd 3f 90 21 70 3f
       0.4438053 1.3539438 1.6057805 0.9380121
0000c0 20 96 58 bd 16 2e a3 3f d1 85 a8 3f a9 e5 bc 3f
       -0.052877545 1.2748439 1.3165838 1.4757587
0000d0 28 a9 82 bf 0c 03 99 3f 71 53 c1 3d c0 75 e8 bf
       -1.0207872 1.1954055 0.09439743 -1.8160934
0000e0 f0 66 16 3d 64 65 53 be f2 b4 40 3e b8 16 ac be
       0.036719263 -0.20644146 0.18819025 -0.33611083
0000f0 f2 bc 33 3e f7 81 b4 be f8 11 6b bd b8 20 4b be
       0.17552546 -0.35255405 -0.057390183 -0.198367

l2.bias f4 [8]
000000 87 71 98 be c7 28 fa 3e e3 92 5f 3f c1 ce 8c 3f
       -0.29774114 0.48859236 0.87333506 1.1000596
000010 f3 f5 63 3f 81 90 dd 3d 19 f6 53 3f 75 82 0e be
       0.89047164 0.108185776 0.8279739 -0.13916953

l3.weight f4 [10, 8]
000000 0f 87 3d be 52 5c 4d bf c7 f2 52 3f a9 e8 bf bf
       -0.18508552 -0.80218995 0.824017 -1.4992877
000010 14 70 07 3f cb 6f 59 be 87 04 c3 bf 30 fc 0c bd
       0.5290539 -0.21234052 -1.5235757 -0.034420192
000020 d0 d8 b3 bc ae a2 6f 3e b9 c8 94 bf bc 2d 4f 3e
       -0.02195397 0.23401901 -1.1623756 0.2023229
000030 4b ee 2c 3f 31 d7 12 c0 28 22 52 3f a7 82 97 be
       0.67551106 -2.2943842 0.8208337 -0.29591867
000040 3e 15 2d 3e d2 9b 35 3f 01 6e 1f 3f ec 6b 55 3f
       0.16902635 0.7094089 0.6227723 0.833678
000050 57 9f fe 3e 72 63 c4 bf d8 56 12 c0 f0 7c c3 3c
       0.49730942 -1.5342848 -2.2865505 0.023863286
000060 04 cf 31 be d9 50 a4 3e 70 2f 0e be 4f d5 5f 3f
       -0.17364126 0.32092932 -0.13885283 0.8743486
000070 84 13 f4 be 6c 7a 02 bf 69 0a 6b 3e 4a 06 2a 3e
       -0.4767114 -0.5096805 0.2295319 0.16603962
000080 b8 59 8d bd 8c 8e d4 bf 40 49 07 bf de aa a1 bf
       -0.06901878 -1.6606002 -0.52846146 -1.263027
000090 fe 6e 76 bf 64 8c 11 3f d7 72 78 3f 0e 81 3c be
       -0.9626311 0.56854844 0.9705023 -0.18408605
0000a0 18 57 12 3d 5d 86 b7 bd ec 5c cf be 4f 17 00 c0
       0.03572759 -0.08961175 -0.4050058 -2.0014226
0000b0 f0 30 2b 3f c3 97 a2 be e7 bb b1 3e d2 36 63 3e
       0.6687155 -0.3175641 0.3471367 0.22188881
0000c0 03 ab aa 3e 0b 34 e4 be eb ae aa 3e df ce 79 bf
       0.33333597 -0.44570956 0.33336577 -0.97581285
0000d0 f4 1a 90 bf fb 57 3a 3f b3 01 88 bf 66 29 2e 3e
       -1.1258225 0.727905 -1.0625519 0.1700798
0000e0 d3 ef a4 be a0 33 9e be de a3 0c c0 95 e7 56 3f
       -0.3221422 -0.30898762 -2.1975017 0.83947116
0000f0 36 a6 18 c0 eb 1a b7 3e b9 91 20 3f 10 64 28 3d
       -2.3851447 0.35762724 0.62722355 0.041111052
000100 0c f7 87 be 75 9d 86 3f 34 c5 9d bf 87 a4 0f be
       -0.2655567 1.0516802 -1.2325807 -0.14027606
000110 ea d4 b6 bf a1 10 8c 3e 3b dc 9a bf ba 99 97 be
       -1.4283726 0.27356437 -1.2098459 -0.29609472
000120 7f ee a4 3e 1a 40 c1 bf 55 53 14 3f 36 86 aa 3e
       0.32213208 -1.5097687 0.57939655 0.3330552
000130 26 dd 4b 3f fc b4 d5 bf a2 9e 5a 3e d9 e5 47 be
       0.7963432 -1.6695857 0.21349576 -0.19521274

l3.bias f4 [10]
000000 e6 84 2f 3d f6 29 a3 3e 4b 1b 18 be 82 22 21 3d
       0.04285135 0.3186795 -0.14854161 0.03933955
000010 87 6d 32 be a2 e0 75 3d 90 1b ac 3e c7 e8 50 3e
       -0.17424594 0.06002868 0.3361478 0.20401298
000020 95 84 7e 3e bf 83 e8 bd
       0.24855264 -0.113532536
